app/models/weights/mouse_macro_lstm_best.pt (torch, 121522 bytes, 15 tensors)

cnn.0.weight f4 [32, 10, 3]
0.11115655 -1.460612 0.014454875 0.08764238 -1.6933799 -0.034451433 -0.116405785 0.11151311
-0.12033873 0.13843238 0.0043265587 -0.06920695 0.036285702 -0.019549709 -0.031812195 -0.09278747
0.073715545 0.0647611 -0.13154325 0.7043951 -0.10919998 -0.36789298 0.1424424 -0.11614964
-0.49017146 0.08763332 -0.3268832 -0.10250297 0.10492503 -0.10560968 -0.746979 -0.4111676
-0.60670054 -0.6229415 -0.40911493 -0.3421758 -0.013398593 0.061574146 -0.108507656 0.18609528
-0.10328196 -0.13963582 0.12305578 0.10902197 0.036338247 -0.10870929 -0.19838724 -0.121944815
0.28124297 0.1815772 0.43436232 -0.0943202 -0.078396015 0.02324682 0.2115007 0.19308814
0.03142953 -9.69288e-05 0.05630033 0.12897088 -2.2114022 -1.9127531 -2.1093073 -2.273068
-1.8757805 -2.2355766 -0.07888672 0.028492995 0.047715046 0.028648028 -0.15883917 0.15117356
0.13923268 -0.16120861 0.017469507 -0.16411184 0.1380921 -0.015286469 -0.14439173 -0.1118659
0.013366032 -0.08432362 -0.109519444 0.22088842 -0.3472577 0.37019217 -0.29114774 0.0008189878
-0.08280954 0.22495392 -2.6013794 -1.9805392 -2.0107 -2.3900616 -1.863072 -1.9796354
0.1290213 -0.11477791 -0.024610914 -0.05821737 0.07342717 0.049063865 0.1395504 -0.03792028
-0.011398953 -0.12583244 0.02878144 0.059006173 0.5365346 -0.07876923 0.6730695 0.029427435
0.5715561 0.54943746 0.25006777 -0.08207884 0.02219856 0.2703791 0.38046998 0.49339727
0.008004925 -0.17393583 0.23368724 0.13776551 0.16028687 0.012193222 -0.049382385 -0.11467261
0.1629109 -0.16612545 0.047810934 0.11773624 -0.08458658 -0.049628835 0.13348493 -0.053329173
-0.055590775 0.10907098 -0.10809073 -0.25004637 -0.42798185 0.15110031 -0.19389014 -0.011002002
0.46967375 0.5823737 0.48205245 0.036732838 -0.08225106 0.010169925 -1.0152749 -1.0575296
-1.2783656 -0.7558029 -1.0544113 -1.2116106 -0.04994686 -0.1387678 -0.1423251 0.14396541
0.087173775 -0.050250344 -0.14432901 0.1021153 0.04169849 0.079101495 0.020243855 0.025972744
0.080147244 -0.09494883 -0.055217687 0.03485588 0.06743907 0.07047285 -0.17295633 -0.05166444
-0.19905837 0.054810576 0.199688 0.17767046 -1.0528915 -0.030683609 0.016717564 -1.1632675
0.10491903 0.15619233 0.10822916 -0.014727842 -0.06317753 -0.027699964 0.12056546 -0.089831665
0.032885674 0.096857905 -0.05758822 -0.006859581 -0.24879107 0.10928705 0.65864295 -0.18226336
0.37917224 0.02053513 -0.28200257 -0.029833162 0.23484957 -0.5679259 -0.2866481 0.1916086
-0.20156537 0.07275826 -2.7110054 -2.4636626 -2.4686544 -2.5283892 -2.287161 -2.3961616
-0.10772405 0.059632257 0.04559786 -0.033699214 -0.07277182 0.10446586 0.08573889 -0.07779541
-0.006640228 -0.06991751 0.03405719 -0.015604329 -0.105483055 0.12504162 -0.057113845 -0.06255753
-0.13297644 -0.07549469 -0.27643663 0.32087052 -0.23969775 -0.043442976 0.08879354 -0.0763889
0.10125835 -1.8865033 -1.9575317 0.09718144 -1.7426482 -2.0446763 -0.016957652 -0.085282214
0.1392941 0.05971715 -0.039858762 -0.05513735 -0.042751256 -0.0005131564 -0.10000988 0.062674396
00000000: 0ca6 e33d 56f5 babf 24d4 6c3c d97d b33d
00000010: acc0 d8bf f21c 0dbd 2866 eebd fc60 e43d
00000020: 2774 f6bd 38c1 0d3e cec5 8d3b 60bc 8dbd
00000030: 51a0 143d b626 a0bc 814d 02bd 5b07 bebd
00000040: 2df8 963d 78a1 843d 46b3 06be 3d53 343f
00000050: 3da4 dfbd 785c bcbe 6cdc 113e dddf edbd
00000060: c1f7 fabe 1979 b33d 3c5d a7be 14ed d1bd
00000070: efe2 d63d e349 d8bd 043a 3fbf 8f84 d2be
00000080: ba50 1bbf 1879 1fbf 8377 d1be ab31 afbe
00000090: c685 5bbc 2c35 7c3d 4339 debd c38f 3e3e
000000a0: 7e85 d3bd b1fc 0ebe ab04 fc3d e946 df3d
000000b0: 6ad7 143d faa2 debd 0626 4bbe 34be f9bd
000000c0: 14ff 8f3e 60ef 393e bd64 de3e f32a c1bd
000000d0: 178e a0bd 1d70 be3c a493 583e e6b8 453e
000000e0: 40bc 003d 4146 cbb8 2d9b 663d f110 043e
000000f0: 9d87 0dc0 18d5 f4bf e4fe 06c0 f279 11c0
00000100: 9319 f0bf b013 0fc0 5c8f a1bd 246a e93c
00000110: da70 433d 45af ea3c bca6 22be 3ecd 1a3e
00000120: 0393 0e3e df13 25be 361c 8f3c ef0c 28be
00000130: 0468 0d3e 1974 7abc 6ddb 13be f319 e5bd
00000140: 34fd 5a3c ddb1 acbd bb4b e0bd 9330 623e
00000150: c3cb b1be d489 bd3e 5111 95be 57b1 563a
00000160: 0c98 a9bd 525a 663e 007d 26c0 4f82 fdbf
00000170: 4faf 00c0 c5f6 18c0 2579 eebf b164 fdbf
00000180: 291e 043e ae10 ebbd d49c c9bc 5675 6ebd
00000190: fc60 963d 31f7 483d 4de6 0e3e 4c52 1bbd
000001a0: adc2 3abc 38da 00be 0ec7 eb3c 75b0 713d
000001b0: 555a 093f c351 a1bd 484e 2c3f ce11 f13c
000001c0: 8051 123f efa7 0c3f e208 803e f318 a8bd
000001d0: c1d9 b53c 216f 8a3e f6cc c23e 919e fc3e
000001e0: 1727 033c 3c1c 32be b54b 6f3e 6712 0d3e
000001f0: 3e22 243e 14c6 473c 2f45 4abd 79d9 eabd
00000200: 1dd2 263e ca1c 2abe 66d5 433d b31f f13d
00000210: bb3b adbd 9b47 4bbd 46b0 083e b16f 5abd
00000220: 27b3 63bd 9b60 df3d ac5e ddbd 1406 80be
00000230: 7020 dbbe 0aba 1a3e 238b 46be be41 34bc
00000240: 1479 f03e 7116 153f 94cf f63e 2c75 163d
00000250: 3e73 a8bd c29f 263c 87f4 81bf 215d 87bf
00000260: 7ca1 a3bf 4d7c 41bf f3f6 86bf 0e16 9bbf
00000270: 1495 4cbd 2519 0ebe acbd 11be ab6b 133e
00000280: 2a88 b23d 4ed3 4dbd fcca 13be d421 d13d
00000290: 09cc 2a3d f7ff a13d 71d6 a53c cbc4 d43c
000002a0: 3d24 a43d 8874 c2bd f12b 62bd 0ac5 0e3d
000002b0: 7f1d 8a3d 1254 903d 771b 31be 189e 53bd
000002c0: f5d5 4bbe 0e81 603d 037b 4c3e 3fef 353e
000002d0: 26c5 86bf 315c fbbc 46f3 883c f3e5 94bf
000002e0: cadf d63d e2f0 1f3e 40a7 dd3d 0c4d 71bc
000002f0: 3963 81bd 09eb e2bc 06eb f63d aaf9 b7bd
00000300: 21b3 063d 705d c63d a0e1 6bbd 56c6 e0bb
00000310: 16c3 7ebe e4d1 df3d d39c 283f 3fa3 3abe
00000320: dd22 c23e 4a39 a83c a462 90be ad64 f4bc
00000330: 687c 703e 9763 11bf 8ac3 92be 0b35 443e
00000340: 2767 4ebe 4802 953d 1d81 2dc0 a6ac 1dc0
00000350: 6ffe 1dc0 21d1 21c0 d960 12c0 b65a 19c0
00000360: 6d9e dcbd f440 743d d2c4 3a3d 3008 0abd
00000370: 6409 95bd 32f2 d53d df97 af3d 3353 9fbd
00000380: 4596 d9bb e930 8fbd 8d7f 0b3d 4da9 7fbc
00000390: 8007 d8bd e90a 003e 35f0 69bd 2a1e 80bd
000003a0: fa2a 08be f69c 9abd 1a89 8dbe 2449 a43e
000003b0: 5473 75be 43f1 31bd 63d9 b53d c971 9cbd
000003c0: 8a60 cf3d f178 f1bf 6690 fabf 1007 c73d
000003d0: 190f dfbf fadb 02c0 c6ea 8abc 71a8 aebd
000003e0: 1da3 0e3e f899 743d f142 23bd b4d7 61bd
000003f0: f11b 2fbd 5885 06ba fbd1 ccbd 6f5b 803d

cnn.0.bias f4 [32]
-0.034158178 0.13577396 0.052422598 -0.032203544 -0.00028773423 -0.0055974214 -0.04334336 0.046116836
0.01378192 -0.014159264 0.063683026 0.21849062 -0.1269586 0.049121905 0.030552406 0.08549064
-0.04238525 0.010684983 -0.17180924 0.031919803 -0.027130844 -0.09964711 -0.07290286 -7.955703e-05
0.00040130338 -0.14562829 0.1473751 0.052193556 0.00059145485 -0.22616196 0.03877428 -0.20330377
00000000: 72e9 0bbd 5408 0b3e 14b9 563d dde7 03bd
00000010: 09db 96b9 936a b7bb cf88 31bd 02e5 3c3d
00000020: 90cd 613c 42fc 67bc 3f6c 823d 01bc 5f3e
00000030: 6f01 02be 0d34 493d 0a49 fa3c b715 af3d
00000040: 289c 2dbd 1110 2f3c c3ee 2fbe 57be 023d
00000050: 8141 debc c913 ccbd 184e 95bd dbd7 a6b8
00000060: 0766 d239 951f 15be 80e9 163e e9c8 553d
00000070: dd0b 1b3a 0097 67be c8d1 1e3d dd2e 50be

cnn.3.weight f4 [64, 32, 3]
-0.1869836 -0.15550637 -0.040094607 -0.10039394 -0.087292016 -0.066247456 0.06667638 0.006017354
0.14408807 -0.102912545 0.006394909 -0.02895927 0.11133523 0.09746248 0.0881517 0.073108405
0.014144596 0.07530172 0.008757837 -0.018457746 0.03693247 0.03121882 -0.01340229 0.043086942
-0.042732403 0.13719542 0.057692166 -0.057559434 -0.051093552 0.009779832 0.08207692 0.11592621
0.11939125 0.05755321 -0.04423754 0.08743217 0.0020366353 0.039268285 0.054549225 -0.0025805815
-0.07818937 -0.03753289 0.088102326 0.08742269 0.0904126 -0.13319169 -0.13112803 -0.13117157
0.15172097 0.12125279 0.03981602 -0.04155007 -0.08864217 0.09547942 0.08354671 0.007235038
0.039558515 0.0014446874 0.033708464 0.09059252 0.005242967 -0.0071038725 -0.027732793 0.16358598
0.18554191 0.12371844 -0.10864593 -0.042854957 -0.04343298 0.02779005 0.11588869 0.031037651
0.14809012 0.10868757 0.2010874 0.028250774 0.093648925 0.084870026 0.13071819 0.037340946
0.046849184 0.057229936 0.1503137 0.029110469 0.00743514 0.09439723 0.10044452 -0.024150325
0.020791247 -0.01923189 0.089494824 0.13053581 0.16054262 0.056573633 0.024581624 -0.042762168
-0.11401783 -0.2262502 -0.65826666 -0.005171741 0.0040841387 -0.06427278 -0.28105038 -0.32873625
-0.28098655 -0.23455405 -0.061672997 -0.2244277 0.009609329 -0.0011901548 0.000667769 0.038825568
0.09579235 0.046097472 -0.30638906 -0.20282803 -0.29128462 -0.4738004 -0.46798363 -0.45706612
-0.05493277 -0.07187173 -0.14277396 0.066056855 0.06781575 0.2290365 0.021663966 0.011146085
0.036329433 0.0054388484 0.06969313 -0.021731662 -0.02763513 -0.05097426 -0.012769488 -0.13503788
-0.0912229 -0.05281675 0.13405882 0.03501604 -0.04358714 -0.019521778 -0.017116651 0.043138973
-0.34595123 -0.3015816 -0.25899842 -0.078590915 -0.06791146 -0.105912 -0.0791331 -0.03923358
0.30417824 0.02374043 -0.011284673 0.01595105 0.062478013 0.09474737 -0.07938046 0.01896732
0.23556773 -0.024922792 0.069878474 -0.07907926 -0.1185629 0.0024931151 0.004223565 -0.0036169952
0.025740996 0.014348564 0.026677115 -0.17388994 -0.08616482 -0.09183603 -0.04037407 -0.07935561
-0.091152966 -0.05950072 -0.048814368 0.07361953 -0.01372817 0.015766557 -0.021219194 -0.040638104
0.14418735 -0.010550767 -0.26518863 -0.32280266 -0.40630716 -0.017905498 -0.13547786 -0.12524483
-0.07811673 -0.13052803 -0.06784444 -0.3272441 -0.3009513 -0.07576978 -0.5058877 -0.28708923
-0.5709728 -0.10546252 0.044904843 -0.25454777 -0.013506679 0.056993973 0.025138903 0.07184569
0.06583615 -0.06086697 0.022188688 0.010101152 -0.066535346 -0.50411415 -0.33835083 -0.5793745
-0.24871874 -0.18587752 -0.16658936 -0.079535946 0.14901747 0.04173241 0.022692278 0.0724523
0.072452426 0.042543437 -0.026358582 -0.032938264 0.02374666 0.04422226 0.006705966 -0.2448273
-0.16192086 -0.031076973 -0.08062246 -0.017674046 0.003377783 0.04268628 0.10714373 -0.40970236
-0.13204288 -0.2751996 -0.27683207 0.00013504994 0.020843701 0.027535165 0.21268713 0.06488656
-0.0055217496 -0.016360886 -0.0058099884 0.0011657893 -0.05611479 -0.08977209 -0.4607031 0.2455638
00000000: a178 3fbe 103d 1fbe 3e3a 24bd 579b cdbd
00000010: 28c6 b2bd bfac 87bd a08d 883d 392d c53b
00000020: d38b 133e d0c3 d2bd 638c d13b fe3b edbc
00000030: ba03 e43d 699a c73d e188 b43d dcb9 953d
00000040: bcbe 673c ca37 9a3d 087d 0f3c b334 97bc
00000050: 8046 173d 9cbe ff3c 4795 5bbc ef7b 303d
00000060: 2c08 2fbd f57c 0c3e 9f4e 6c3d 71c3 6bbd
00000070: 7947 51bd 973b 203c f217 a83d b96a ed3d
00000080: 6683 f43d eabc 6b3d 6c32 35bd a30f b33d
00000090: 1279 053b c8d7 203d 026f 5f3d f91e 29bb
000000a0: c021 a0bd 16bc 19bd fe6e b43d ab0a b33d
000000b0: 3e2a b93d 6763 08be 6d46 06be d751 06be
000000c0: be5c 1b3e 6253 f83d 1f16 233d 6830 2abd
000000d0: 078a b5bd b78a c33d 8a1a ab3d e613 ed3b
000000e0: 1c08 223d aa5b bd3a e311 0a3d 9288 b93d
000000f0: 32cd ab3b 9ac7 e8bb e22f e3bc 1583 273e
00000100: b3fe 3d3e 1860 fd3d c281 debd ae88 2fbd
00000110: c8e6 31bd f5a7 e33c 0d57 ed3d ac42 fe3c
00000120: f0a4 173e 9797 de3d dbe9 4d3e 2b6e e73c
00000130: 02cb bf3d 56d0 ad3d fdda 053e d2f2 183d
00000140: eee4 3f3d f069 6a3d d6eb 193e 1479 ee3c
00000150: 7aa2 f33b 5653 c13d dbb5 cd3d e7d6 c5bc
00000160: 6852 aa3c 328c 9dbc 1049 b73d 2eab 053e
00000170: 4965 243e c1b9 673d 675f c93c 6227 2fbd
00000180: 2e82 e9bd 22ae 67be 2a84 28bf b577 a9bb
00000190: 3dd4 853b 73a1 83bd d6e5 8fbe 1e50 a8be
000001a0: 78dd 8fbe f02e 70be d39c 7cbd 60d0 65be
000001b0: 7270 1d3c f8fe 9bba 380d 2f3a 8f07 1f3d
000001c0: c82e c43d b4d0 3c3d 07df 9cbe 27b2 4fbe
000001d0: 4223 95be f795 f2be 8d9b efbe 9204 eabe
000001e0: 2f01 61bd 7c31 93bd 5633 12be d148 873d
000001f0: fce2 8a3d 8b88 6a3e a178 b13c 129e 363c
00000200: 2cce 143d 5e38 b23b 46bb 8e3d 9906 b2bc
00000210: 1163 e2bc 63ca 50bd 1d37 51bc 5f47 0abe
00000220: 12d3 babd 6056 58bd b746 093e fb6c 0f3d
00000230: 6e88 32bd 23ec 9fbc 3838 8cbc 7eb2 303d
00000240: 8520 b1be e768 9abe 719b 84be 46f4 a0bd
00000250: 2a15 8bbd 64e8 d8bd 8910 a2bd 64b3 20bd
00000260: 40bd 9b3e 4a7b c23c 59e3 38bc c7ab 823c
00000270: f2e8 7f3d e90a c23d 3992 a2bd 5a61 9b3c
00000280: ab38 713e e22a ccbc 721c 8f3d 4ff4 a1bd
00000290: 1bd1 f2bd 8863 233b d565 8a3b 1c0b 6dbb
000002a0: c8de d23c 3d16 6b3c f789 da3c 3410 32be
000002b0: 2e77 b0bd 8714 bcbd 485f 25bd 3285 a2bd
000002c0: 68ae babd 07b7 73bd 93f1 47bd d6c5 963d
000002d0: 1eec 60bc de28 813c e0d3 adbc 2474 26bd
000002e0: d9a5 133e 20dd 2cbc cec6 87be 6446 a5be
000002f0: 7e07 d0be 8dae 92bc b5ba 0abe 2e40 00be
00000300: aafb 9fbd 24a9 05be 07f2 8abd 8a8c a7be
00000310: 4a16 9abe 302d 9bbd db81 01bf 5cfd 92be
00000320: 462b 12bf bcfc d7bd 24ee 373d 1654 82be
00000330: 1e4b 5dbc 8372 693d 1af0 cd3c d523 933d
00000340: 1ad5 863d a54f 79bd 0dc5 b53c 4d7f 253c
00000350: af43 88bd a00d 01bf 523c adbe e351 14bf
00000360: 20b0 7ebe ad56 3ebe 6796 2abe bee3 a2bd
00000370: 0998 183e 9bef 2a3d 28e5 b93c df61 943d
00000380: f061 943d 0742 2e3d f4ed d7bc 46ea 06bd
00000390: 5b88 c23c 6722 353d b8bd db3b 02b4 7abe
000003a0: 95ce 25be 2395 febc 631d a5bd 29c9 90bc
000003b0: cc5d 5d3b cfd7 2e3d 2c6e db3d 82c4 d1be
000003c0: 4036 07be f6e6 8cbe efbc 8dbe 319c 0d39
000003d0: 69c0 aa3c 6d91 e13c a8ca 593e 3fe3 843d
000003e0: cbef b4bb 4407 86bc b761 bebb 66cd 983a
000003f0: 9fd8 65bd 6eda b7bd 47e1 ebbe 1475 7b3e

cnn.3.bias f4 [64]
-0.024017766 0.042565286 0.0041728658 0.009818805 0.010868348 0.044968642 0.027266048 0.030662116
0.02936269 -0.011510854 -0.016050493 0.032709524 0.009102644 0.020212945 0.0483049 0.03209237
-0.028068542 -0.00036622048 0.028102325 0.011213388 0.03430434 0.010363385 0.026673729 0.0327932
0.015401379 0.025609165 0.043322854 0.03936201 0.005059505 0.098599404 -0.06124663 -0.014681115
-0.0069441516 0.023584362 -0.036684215 0.055417486 -0.04312556 0.0010617058 0.016791962 0.052705947
0.005897432 0.0073310207 -0.059035953 0.04268858 0.019871548 -0.0083393045 0.033603363 0.07575992
0.01382332 0.013524715 -0.00037954163 -0.014709374 -0.04595808 0.03949024 0.047670085 -0.033414494
-0.12652546 0.022772115 -0.016141532 0.008288663 -0.030712219 0.048873052 -0.016751701 0.019541714
00000000: e8c0 c4bc f058 2e3d 89bc 883b 0edf 203c
00000010: 2811 323c 0a31 383d 0c5d df3c 1e2f fb3c
00000020: 068a f03c 0598 3cbc 537c 83bc 6cfa 053d
00000030: 4223 153c 9e95 a53c 5cdb 453d 4a73 033d
00000040: 00f0 e5bc 4801 c0b9 d936 e63c 5cb8 373c
00000050: b582 0c3d 30cb 293c dd82 da3c 2a52 063d
00000060: 1156 7c3c 50ca d13c 4e73 313d 0f3a 213d
00000070: 34ca a53b 7cee c93d bfdd 7abd 0f89 70bc
00000080: c48b e3bb fe33 c13c 3042 16bd 72fd 623d
00000090: 6da4 30bd ef28 8b3a 4c8f 893c 31e2 573d
000000a0: 3f3f c13b 0f39 f03b afcf 71bd 38da 2e3d
000000b0: a8c9 a23c 94a1 08bc aea3 093d 0428 9b3d
000000c0: 357b 623c c496 5d3c 37fd c6b9 96ff 70bc
000000d0: 8a3e 3cbd 85c0 213d b541 433d a3dd 08bd
000000e0: e48f 01be 968c ba3c 3f3b 84bc 2ccd 073c
000000f0: 3198 fbbc 1c2f 483d dd3a 89bc f215 a03c

lstm.weight_ih_l0 f4 [128, 64]
-0.057380702 0.14272846 -0.11479342 -0.13328944 -0.03165863 0.071915224 0.06671306 0.11995434
0.1320594 -0.06767517 0.094730586 0.030545238 -0.08058386 -0.22139049 -0.096508384 -0.10492533
-0.09833606 -0.12485381 0.030678568 -0.15363206 0.08603041 0.004259849 0.1120499 0.16775785
0.047697157 0.16907506 -0.11607886 0.12170461 -0.10512259 0.13104947 -0.041456588 -0.17861812
0.017240373 -0.25912496 0.20346445 -0.1735881 -0.1442966 -0.0055601564 -0.15522835 -0.24440274
-0.078311056 -0.21037403 -0.24815397 0.05139029 -0.1290228 -0.026433418 0.042214915 -0.14830609
-0.13120504 0.10889122 0.10893422 0.05951761 0.051144257 0.15330875 -0.045881245 0.14338519
0.4172629 -0.0021786755 0.122962765 -0.13355562 0.042596277 0.07512034 -0.16225137 -0.16376613
0.1580071 0.09492035 0.41326517 0.13476995 0.07813718 -0.03743631 0.012126826 -0.061805103
-0.12615591 0.10100757 0.030960292 -0.05704828 -0.043985654 0.18918733 -0.18591566 -0.123303
-0.044822752 -0.1619348 0.10538812 0.07385766 0.26828834 0.042423204 -0.17491607 0.043289926
-0.008482693 -0.004270333 0.104756206 -0.13169321 0.110941835 0.21171235 0.73837095 -0.15231179
0.043340962 0.021555265 0.21005967 -0.08784065 -0.15003267 0.18646824 -0.20707583 0.2019808
-0.021251967 0.24637493 0.24036995 0.064636074 -0.00085575815 0.27315512 0.025793537 -0.08648922
-0.003576165 -0.046644982 -0.21377204 -0.17737104 0.28665924 -0.11770398 0.073175095 -0.16946033
0.47492406 -0.0928619 -0.18666604 -0.09194522 -0.010009712 0.11682311 -0.14568035 0.18873179
0.009127576 0.05093364 -0.2804721 -0.23085646 0.10503161 -0.1136952 -0.020469101 -0.066671245
-0.0061926497 -0.2007105 0.018885009 0.19426876 0.19463794 -0.05994643 -0.08473547 0.20965046
0.15088116 0.054463595 0.07616314 -0.027643396 -0.12207769 -0.13818058 -0.05301994 -0.029433867
0.16280067 -0.040635925 -0.062312856 0.101128004 0.08444659 0.1425409 -0.2646965 0.10987938
-0.0011825036 0.0064782435 -0.10674558 -0.12156811 0.055358835 -0.030921279 0.20331335 -0.111281514
0.055085838 -0.09999813 -0.10942931 -0.094344914 0.0063688667 0.15283662 -0.070373744 0.0021883037
-0.04567171 -0.052553833 0.13600883 0.028092153 0.13611831 0.012780859 0.17664586 0.029320156
0.32055104 0.10823514 0.15655528 0.16515142 0.14529255 -0.11014132 0.19444013 -0.15327783
0.15781471 -0.17480005 -0.28697896 -0.009410211 0.05177712 0.11845706 -0.07001975 0.015503686
0.16006133 0.019724926 -0.07610374 0.04222354 -0.08866738 -0.039582714 -0.07735559 -0.11676511
-0.006417737 0.12623826 -0.013430631 0.081192814 -0.051657762 0.09139999 0.090503976 0.13577479
-0.20204079 0.09836725 0.12754095 0.0874467 0.16044512 0.06382466 -0.09396458 0.14127916
0.053205825 -0.18527244 0.0016715709 -0.083612226 -0.02469303 -0.14533103 -0.09216706 -0.2491941
-0.00070938835 0.020970294 -0.2844093 -0.12684678 0.12786524 0.15569147 0.14943214 0.101866096
0.008932011 0.10546276 0.054285817 -0.017919825 0.06333399 0.007538208 0.10941946 -0.030648338
0.30265465 -0.07898047 -0.07361914 -0.0654789 0.071036205 0.026399028 0.10051856 0.12281746
00000000: 0708 6bbd 6927 123e d018 ebbd 077d 08be
00000010: 7bac 01bd 4a48 933d dba0 883d 9faa f53d
00000020: 943a 073e 4899 8abd 1c02 c23d 023a fa3c
00000030: 2709 a5bd 30b4 62be 30a6 c5bd 17e3 d6bd
00000040: 6b64 c9bd 5bb3 ffbd 9f51 fb3c b951 1dbe
00000050: b630 b03d 3496 8b3b 6b7a e53d b7c8 2b3e
00000060: 185e 433d 0322 2d3e c1ba edbd 4440 f93d
00000070: 834a d7bd d531 063e 62ce 29bd abe7 36be
00000080: af3b 8d3c 07ac 84be fc58 503e 14c1 31be
00000090: 7dc2 13be f931 b6bb 2ef4 1ebe b644 7abe
000000a0: 8c61 a0bd 4a6c 57be 131c 7ebe a07e 523d
000000b0: 8e1e 04be e58a d8bc 8ce9 2c3d 8ddd 17be
000000c0: 9d5a 06be 5c02 df3d e818 df3d bdc8 733d
000000d0: a47c 513d f8fc 1c3e f9ed 3bbd 91d3 123e
000000e0: 7ca3 d53e 1cc8 0ebb e7d3 fb3d cec2 08be
000000f0: 6f79 2e3d b1d8 993d 3925 26be 4fb2 27be
00000100: 9dcc 213e 9a65 c23d 7e97 d33e 2201 0a3e
00000110: 6306 a03d d156 19bd 98af 463c 5927 7dbd
00000120: 042f 01be 0fdd ce3d 70a0 fd3c 75ab 69bd
00000130: 4d2a 34bd 53ba 413e ad60 3ebe 4986 fcbd
00000140: 1098 37bd 3cd2 25be bad5 d73d af42 973d
00000150: 175d 893e f4c3 2d3d 331d 33be c750 313d
00000160: fefa 0abc 26ee 8bbb 6c8a d63d 96da 06be
00000170: 7935 e33d 1fcb 583e e105 3d3f 9ff7 1bbe
00000180: 4b86 313d ab94 b03c e219 573e cce5 b3bd
00000190: 2aa2 19be 88f1 3e3e b00b 54be 0ed4 4e3e
000001a0: 9b18 aebc b649 7c3e 8a23 763e eb5f 843d
000001b0: f554 60ba fdda 8b3e f84c d33c 4321 b1bd
000001c0: 185e 6abb cf0e 3fbd 0fe7 5abe c1a0 35be
000001d0: 00c5 923e c90e f1bd d3dc 953d 0287 2dbe
000001e0: 3f29 f33e 612e bebd 6225 3fbe c74d bcbd
000001f0: c6ff 23bc f440 ef3d 3b2d 15be e842 413e
00000200: d48b 153c cb9f 503d 0a9a 8fbe a365 6cbe
00000210: d01a d73d 07d9 e8bd d1ae a7bc ef8a 88bd
00000220: b6eb cabb 0e87 4dbe bcb4 9a3c 64ee 463e
00000230: 2b4f 473e 638a 75bd ca89 adbd 9cae 563e
00000240: 9780 1a3e 3815 5f3d 6cfb 9b3d 6774 e2bc
00000250: de03 fabd 367f 0dbe 702b 59bd 4b1f f1bc
00000260: 38b5 263e db71 26bd c43b 7fbd 331c cf3d
00000270: 55f2 ac3d 3ef6 113e 4d86 87be 7108 e13d
00000280: 3dfe 9aba 7247 d43b 6d9d dabd b4f8 f8bd
00000290: f2bf 623d 9f4e fdbc 6031 503e 90e7 e3bd
000002a0: b0a1 613d d2cb ccbd 791c e0bd e837 c1bd
000002b0: edb1 d03b 3481 1c3e 1c20 90bd a569 0f3b
000002c0: 4212 3bbd b042 57bd e645 0b3e 8421 e63c
000002d0: 9962 0b3e cf66 513c a7e2 343e d330 f03c
000002e0: 441f a43e 63aa dd3d 0750 203e 741d 293e
000002f0: 92c7 143e c691 e1bd 501b 473e ddf4 1cbe
00000300: 2e9a 213e c9fe 32be e8ee 92be 492d 1abc
00000310: 3f14 543d 9d99 f23d 8466 8fbd 2c03 7e3c
00000320: 1ee7 233e 2b96 a13c 47dc 9bbd 97f2 2c3d
00000330: 3e97 b5bd 7c21 22bd 9c6c 9ebd 8c22 efbd
00000340: e14b d2bb 9a44 013e 260c 5cbc 6b48 a63d
00000350: 1797 53bd eb2f bb3d 265a b93d 8c08 0b3e
00000360: c8e3 4ebe c574 c93d 189a 023e 4117 b33d
00000370: ba4b 243e 81b6 823d 8070 c0bd 7cab 103e
00000380: 5aee 593d 0fb8 3dbe 9d18 db3a e33c abbd
00000390: 0a49 cabc a8d1 14be 15c2 bcbd bd2c 7fbe
000003a0: 3ff6 39ba e5c9 ab3c 199e 91be 1fe4 01be
000003b0: 1bef 023e 966d 1f3e bd04 193e 2c9f d03d
000003c0: 9257 123c dcfc d73d ce5a 5e3d 99cc 92bc
000003d0: 40b5 813d 1203 f73b 4f17 e03d 3912 fbbc
000003e0: 8df5 9a3e 83c0 a1bd a2c5 96bd cd19 86bd
000003f0: 6e7b 913d c642 d83c addc cd3d b887 fb3d

lstm.weight_hh_l0 f4 [128, 32]
0.12022542 0.02267652 0.12031044 0.11634591 0.15862012 0.04924005 0.113296494 -0.18061708
-0.123127915 -0.101143435 0.045410793 0.03951459 -0.13398775 0.029272137 -0.15864295 0.1048125
-0.08378705 0.21911754 0.07150446 -0.04053063 0.11894974 -0.03850758 -0.17819025 0.050275546
0.016191997 0.014458345 0.15637994 -0.011496799 -0.1467362 0.06171447 0.17821233 0.14077932
-0.010095393 0.32063565 0.09658534 0.07693498 0.015019437 -0.0077913417 0.016874332 -0.06933434
0.07020522 -0.06493807 -0.16377369 -0.2415072 -0.15677655 -0.1369062 0.19228175 -0.29302222
-0.11805862 -0.054654982 -0.12752089 -0.014257754 -0.108955145 0.108494185 0.116434135 -0.011512827
-0.07869413 0.1280442 0.0088741155 0.12707363 -0.17001435 -0.044029117 0.21008438 -0.16124143
-0.123277165 -0.096797004 0.1159177 0.19209483 -0.006294405 0.2144914 0.024085505 0.07046888
-0.036777493 -0.15046711 0.07342991 0.065109074 -0.051634636 0.032770216 0.10555527 -0.094781764
-0.019451778 0.12245521 -0.078746006 -0.09881441 -0.015018702 -0.109874085 -0.07072907 -0.021809988
0.09439204 0.06217185 0.13414703 -0.17808233 -0.05761604 0.14941539 -0.139958 0.08011448
0.11923451 -0.17517357 0.11863605 -0.12214718 0.1287328 -0.031582676 -0.1238099 -0.22132939
-0.025954934 0.003483956 0.006942446 -0.08237475 -0.0133962 -0.11357383 0.07450472 0.039227113
-0.18856266 0.11705694 0.03761915 -0.14427336 0.017582849 -0.08423759 -0.10716457 -0.09740797
0.07117205 -0.11861512 0.062490676 -0.15479854 -0.09274477 0.12688851 0.05501102 -0.11960272
0.12952536 0.0018809501 -0.05926911 0.07053968 -0.15295687 -0.078634135 0.09157394 0.11539646
-0.055828627 -0.12865621 0.11372906 -0.15838352 -0.026579738 0.06679513 -0.13749316 -0.026259873
-0.0094126435 -0.07705441 -0.027715692 0.12905414 -0.027175615 0.13224085 0.054335114 0.02210401
0.0062198783 0.052927822 0.18740173 0.09982398 -0.13830288 0.2085714 0.09290179 0.17007792
-0.0525673 0.17435935 0.021757822 0.13923876 0.07258183 0.092942186 -0.105783485 -0.09529205
0.00513147 0.14485504 0.11531948 -0.09149391 0.16526017 0.14827688 0.098609455 -0.083260715
0.0022226735 0.17395568 -0.043409042 0.03226836 0.05176387 0.040637746 0.110776186 0.027755665
-0.032826528 -0.07073307 0.24755171 -0.16398557 -0.014694017 0.07191747 0.0625892 0.030378208
0.20296928 -0.0113507565 -0.12528256 0.11257334 -0.02336956 0.19010656 0.025831703 0.23877536
0.28389314 0.0028056977 0.015242662 -0.0854158 0.01645983 -0.06467198 -0.14743926 -0.30463782
-0.0075060925 -0.12798159 0.17106956 0.16238393 -0.040770065 0.18224078 0.08793511 -0.27891314
0.10013024 -0.15516447 0.014226421 0.28926983 0.031068442 0.12892424 0.18932995 0.0338053
-0.079110116 -0.027982796 -0.16622664 -0.007344248 0.07677777 -0.006903302 0.008370988 -0.0151211815
-0.14085135 0.051271107 -0.14724188 -0.17136903 0.006287148 -0.10130688 -0.0302342 -0.13790911
0.033986345 -0.06260332 0.16626355 0.027938502 0.15607157 0.15360203 -0.06485989 0.19044103
-0.015588955 -0.006177699 0.27945963 -0.02715713 -0.108101524 0.095359825 -0.14876397 -0.061659034
00000000: bf38 f63d 1cc4 b93c 5265 f63d c446 ee3d
00000010: 506d 223e efaf 493d fe07 e83d aff3 38be
00000020: 7d2a fcbd 4a24 cfbd ab00 3a3d 0dda 213d
00000030: 1634 09be 1fcc ef3c 4c73 22be f0a7 d63d
00000040: 8b98 abbd 5960 603e ee70 923d 7203 26bd
00000050: ec9b f33d 20ba 1dbd 8177 36be bbed 4d3d
00000060: 14a5 843c b2e2 6c3c 1022 203e 125d 3cbc
00000070: 0442 16be 50c8 7c3d 4b7d 363e 7428 103e
00000080: 2667 25bc 5b2a a43e 89ce c53d 1690 9d3d
00000090: 1614 763c 834e ffbb 0a3c 8a3c 2aff 8dbd
000000a0: c1c7 8f3d 40fe 84bd 4ab4 27be aa4d 77be
000000b0: 088a 20be 2431 0cbe 82e5 443e 0207 96be
000000c0: b8c8 f1bd e7dd 5fbd d694 02be 5b99 69bc
000000d0: e023 dfbd 3332 de3d 0575 ee3d 4ca0 3cbc
000000e0: 632a a1bd 051e 033e bd64 113c 971f 023e
000000f0: 3e18 2ebe e057 34bd 5c20 573e 791c 25be
00000100: bd78 fcbd 823d c6bd 4266 ed3d 82b4 443e
00000110: 4c41 cebb a2a3 5b3e f74e c53c fd51 903d
00000120: ffa3 16bd 0d14 1abe 6c62 963d e857 853d
00000130: d77e 53bd 103a 063d 5d2d d83d f11c c2bd
00000140: 5659 9fbc ccc9 fa3d 9645 a1bd 365f cabd
00000150: 0011 76bc aa05 e1bd 67da 90bd dcaa b2bc
00000160: 9d50 c13d e9a7 7e3d d75d 093e 375b 36be
00000170: ccfe 6bbd 5900 193e 2651 0fbe 0f13 a43d
00000180: 3931 f43d b360 33be 75f7 f23d 4d28 fabd
00000190: 88d2 033e d65c 01bd 0b90 fdbd 2ca4 62be
000001a0: 719f d4bc 1553 643b 757d e33b 18b4 a8bd
000001b0: bc7b 5bbc 6599 e8bd ee95 983d 9cac 203d
000001c0: 9216 41be 8dbb ef3d 8a16 1a3d 65bc 13be
000001d0: e809 903c c284 acbd 1979 dbbd d47d c7bd
000001e0: a7c2 913d 7cec f2bd 39f6 7f3d 8283 1ebe
000001f0: f8f0 bdbd 10ef 013e 3c53 613d 45f2 f4bd
00000200: 4ca2 043e 368a f63a 2bc4 72bd 1c77 903d
00000210: baa0 1cbe ef0a a1bd 1e8b bb3d fb54 ec3d
00000220: 8fac 64bd 74be 03be c8ea e83d 4a2f 22be
00000230: c0bd d9bc e3cb 883d 02cb 0cbe f21e d7bc
00000240: 7d37 1abc b4ce 9dbd 050c e3bc c526 043e
00000250: 659f debc 256a 073e 7f8e 5e3d 7813 b53c
00000260: 1fd0 cb3b d8ca 583d 3de6 3f3e 8470 cc3d
00000270: 459f 0dbe be93 553e 4b43 be3d e828 2e3e
00000280: cf50 57bd 428b 323e 763d b23c 9b94 0e3e
00000290: c8a5 943d 7958 be3d 03a5 d8bd 7a28 c3bd
000002a0: e425 a83b e154 143e 9f2c ec3d 2961 bbbd
000002b0: f639 293e e5d5 173e c1f3 c93d 9884 aabd
000002c0: 46aa 113b 7021 323e aecd 31bd d42b 043d
000002d0: 5a06 543d c473 263d a0de e23d d95f e33c
000002e0: 1c75 06bd 80dc 90bd 327e 7d3e d5eb 27be
000002f0: 2dbf 70bc 7749 933d c42e 803d b8db f83c
00000300: 2ed7 4f3e 86f8 39bc 124a 00be da8c e63d
00000310: 8571 bfbc 4bab 423e 029d d33c 8781 743e
00000320: 715a 913e ccdf 373b 5cbc 793c 7bee aebd
00000330: c4d6 863c be72 84bd 51fa 16be 7df9 9bbe
00000340: abf5 f5bb 9b0d 03be dc2c 2f3e f947 263e
00000350: 83fe 26bd 549d 3a3e 5317 b43d b4cd 8ebe
00000360: 1511 cd3d 6fe3 1ebe ef15 693c 2d1b 943e
00000370: 3f83 fe3c b704 043e b6df 413e 6d77 0a3d
00000380: 7c04 a2bd 2d3c e5bc 5137 2abe 04a8 f0bb
00000390: aa3d 9d3d 1835 e2bb 7826 093c d5be 77bc
000003a0: 563b 10be a701 523d 93c6 16be 5d7b 2fbe
000003b0: 6c04 ce3b fb79 cfbd b7ad f7bc 0c38 0dbe
000003c0: 4435 0b3d 2b36 80bd fe40 2a3e 49df e43c
000003d0: 3ad1 1f3e da49 1d3e 43d5 84bd f902 433e
000003e0: d168 7fbc 4c6e cabb 5515 8f3e a178 debc
000003f0: 5564 ddbd 034c c33d 9555 18be 2f8e 7cbd

lstm.bias_ih_l0 f4 [128]
-0.018737717 0.06912963 -0.021671843 0.018851139 0.024389382 0.106210515 -0.07315344 -0.08125867
0.15075439 0.09348721 -0.10262073 -0.13111791 0.101289414 0.004823345 0.0022428038 0.09276415
0.068083465 0.123485394 0.12165092 -0.14647356 -0.05891141 0.03022086 0.1569769 0.15302442
0.10220623 0.05868775 -0.017787993 -0.04311776 -0.17372233 0.19711414 0.058367487 0.17812963
0.036385607 -0.05700349 -0.13004813 -0.12967609 0.010040135 -0.011282971 0.17299032 -0.012193148
0.011729394 0.085851364 0.111981675 -0.093326814 -0.05502784 0.16781643 -0.05422832 0.13209572
-0.006427875 0.0624513 0.0065344195 -0.010347364 0.038083587 -0.11205892 0.19138327 0.20249228
-0.056314144 -0.086968124 -0.04128517 0.022957675 -0.115429536 0.13817635 0.15626009 0.11824855
0.03574875 0.18220808 -0.14405409 0.11658096 -0.18377286 -0.076975234 -0.20341139 0.15402545
-0.11836246 -0.093317114 0.011956054 -0.17963435 0.0012489007 0.073958896 0.080870934 0.013289355
0.15099037 0.08119442 -0.11334995 -0.107816994 0.05440615 0.113444395 -0.12786922 -0.043065984
0.064989336 -0.03810388 0.07131371 0.04278776 0.09336653 -0.002968446 0.18565732 0.074004956
0.03384461 0.21698433 0.07005943 0.03164817 -0.018902104 0.14219163 0.12549672 -0.14261699
0.036604565 0.113987744 -0.13253744 0.20505023 -0.05681486 -0.020781064 -0.09460597 0.108968
0.13331863 -0.01191931 0.0023562768 0.13166913 -0.08049051 -0.03154676 -0.09200722 0.03607477
0.09859839 -0.007046308 -0.102823496 0.21018901 0.13291109 -0.079911284 -0.12070953 0.18677783
00000000: d77f 99bc d693 8d3d 2689 b1bc b46d 9a3c
00000010: 3ecc c73c e684 d93d 79d1 95bd f26a a6bd
00000020: 5c5f 1a3e 3976 bf3d d12a d2bd c643 06be
00000030: d370 cf3d 270d 9e3b 01fc 123b 21fb bd3d
00000040: 586f 8b3d e9e5 fc3d 1e24 f93d 2afd 15be
00000050: 174d 71bd bd91 f73c 8dbe 203e 6fb2 1c3e
00000060: 8051 d13d 9162 703d 20b8 91bc 409c 30bd
00000070: 44e4 31be 4ad8 493e bf12 6f3d 9d67 363e
00000080: 1309 153d 7e7c 69bd 562b 05be cfc9 04be
00000090: 617f 243c 36dc 38bc 6024 313e c5c5 47bc
000000a0: a52c 403c d7d2 af3d a656 e53d 2122 bfbd
000000b0: df64 61bd 12d8 2b3e 841e 5ebd 1a44 073e
000000c0: eca0 d2bb efcc 7f3d af1e d63b fd87 29bc
000000d0: 89fd 1b3d 267f e5bd faf9 433e 235a 4f3e
000000e0: a9a9 66bd 581c b2bd a31a 29bd bc11 bc3c
000000f0: 5266 ecbd 1a7e 0d3e a502 203e 4c2c f23d
00000100: 486d 123d c194 3a3e ea82 13be 00c2 ee3d
00000110: f42e 3cbe 31a5 9dbd 134b 50be d9b8 1d3e
00000120: 0468 f2bd 0b1d bfbd 53e3 433c 11f2 37be
00000130: 27b2 a33a c377 973d a99f a53d 98bb 593c
00000140: 389d 1a3e 4349 a63d 0524 e8bd 28cf dcbd
00000150: fcd8 5e3d 8955 e83d 26f0 02be f565 30bd
00000160: 2119 853d d012 1cbd ec0c 923d 3842 2f3d
00000170: f436 bf3d 428a 42bb f41c 3e3e e98f 973d
00000180: a5a0 0a3d 2431 5e3e 527b 8f3d 83a1 013d
00000190: 96d8 9abc af9a 113e 3682 003e 300a 12be
000001a0: abee 153d 6872 e93d e5b7 07be b0f8 513e
000001b0: b3b6 68bd 0d3d aabc c6c0 c1bd 9d2a df3d
000001c0: ae84 083e 3649 43bc c46b 1a3b 46d4 063e
000001d0: 35d8 a4bd 2d37 01bd 486e bcbd 23c3 133d
000001e0: f4ed c93d b7e4 e6bb 2095 d2bd ca3b 573e
000001f0: d819 083e 87a8 a3bd 8f36 f7bd b042 3f3e

lstm.bias_hh_l0 f4 [128]
-0.15383333 0.19233128 -0.1589767 -0.086141676 -0.05420075 -0.023304783 0.12644708 0.020098835
0.062087625 0.20787254 0.16163565 0.007454962 -0.09886273 0.0789836 0.03433362 0.0126826335
-0.07555743 0.05149507 -0.034118153 -0.14418778 -0.038202506 0.18058999 -0.06196283 -0.04478335
-0.08521474 -0.063652664 -0.13004605 0.016259933 0.036775775 -0.030408682 0.14963673 0.1344396
-0.08716597 0.010508518 -0.047854926 0.013582613 0.0015118336 -0.0295636 -0.0058069685 0.020849966
-0.108791105 0.096950114 0.18032603 -0.1232178 0.118943825 0.17841347 0.12885754 0.12860224
-0.099662535 0.22347462 -0.08849862 0.112503566 -0.123783596 0.18976995 -0.06965624 0.09787937
-0.013023905 -0.08682877 -0.05887036 -0.058635436 -0.15627983 -0.017728578 -0.045795947 -0.029900884
0.14206877 0.10494504 -0.14206016 0.059223786 -0.13280341 0.17903621 -0.1139825 0.021999352
0.041117582 0.139414 -0.13410045 -0.19685215 0.03780736 0.13085736 -0.091131054 -0.14709301
-0.02421015 0.06593355 0.10161256 0.18683887 -0.1687425 0.100660205 0.118425876 0.08142926
-0.059897173 -0.01767844 -0.12919927 0.01581284 -0.064279296 -0.0046494207 -0.0645203 -0.025265386
-0.14218529 0.20874721 0.10748063 0.044062626 -0.00012683042 -0.08029664 0.13407175 0.18446583
0.116512924 0.19435345 0.0487522 0.025457514 -0.1532353 0.21369998 -0.14273947 0.28155565
-0.06956209 0.108996145 0.15990816 -0.0013455 0.09882493 0.07633047 0.04549055 0.026035586
0.09776795 0.22038157 -0.10186887 0.24348137 -0.0031869463 0.08911065 0.009328975 0.04578361
00000000: 7c86 1dbe 7ef2 443e caca 22be 0c6b b0bd
00000010: 9b01 5ebd ace9 bebc 587b 013e 50a6 a43c
00000020: 984f 7e3d 8adc 543e d183 253e c148 f43b
00000030: 8b78 cabd 27c2 a13d 69a1 0c3d d2ca 4f3c
00000040: dbbd 9abd 7fec 523d 7abf 0bbd f6a5 13be
00000050: 3b7a 1cbd 95ec 383e bdcc 7dbd bf6e 37bd
00000060: 1185 aebd 545c 82bd cb2a 05be 8d33 853c
00000070: 32a2 163d a11b f9bc 5f3a 193e 89aa 093e
00000080: 1284 b2bd eb2b 2c3c 8703 44bd 9c89 5e3c
00000090: b828 c63a 5d2f f2bc 6248 bebb 8ccd aa3c
000000a0: dfcd debd c88d c63d 63a7 383e 9d59 fcbd
000000b0: d298 f33d 05b2 363e 3bf3 033e 4eb0 033e
000000c0: df1b ccbd 88d6 643e c43e b5bd 4568 e63d
000000d0: 4182 fdbd 0e53 423e eea7 8ebd fb74 c83d
000000e0: 3862 55bc 48d3 b1bd 0c22 71bd b62b 70bd
000000f0: d207 20be 863b 91bc 8894 3bbd b3f2 f4bc
00000100: 7a7a 113e 6ded d63d 3878 11be a494 723d
00000110: 9efd 07be 4555 373e a86f e9bd fc37 b43c
00000120: e96a 283d 8bc2 0e3e a151 09be 9c93 49be
00000130: e4db 1a3d 79ff 053e eba2 babd 8d9f 16be
00000140: 5d54 c6bc 2b08 873d 3f1a d03d b052 3f3e
00000150: d5ca 2cbe f026 ce3d 4489 f23d 62c4 a63d
00000160: bd56 75bd 60d2 90bc d04c 04be ee89 813c
00000170: dda4 83bd 2b5a 98bb 3823 84bd 5bf9 cebc
00000180: 0599 11be d4c1 553e ce1e dc3d 037b 343d
00000190: c8fd 04b9 9172 a4bd 1b4a 093e 9ce4 3c3e
000001a0: 549e ee3d 9704 473e 63b0 473d 478c d03c
000001b0: b7e9 1cbe 2bd4 5a3e 4c2a 12be 1028 903e
000001c0: 9276 8ebd 5f39 df3d f7be 233e 7d5b b0ba
000001d0: ba64 ca3d 2653 9c3d 4d54 3a3d 9548 d53c
000001e0: 903a c83d b5ab 613e a0a0 d0bd 2e53 793e
000001f0: 16dc 50bb a57f b63d 8fd8 183c 9887 3b3d

lstm.weight_ih_l1 f4 [128, 32]
0.12276561 0.20238073 0.021659965 0.11369439 -0.07951969 0.115488194 -0.003714671 -0.018490648
0.0224932 0.016457127 0.11292416 -0.13320796 0.11797503 0.059723943 -0.008467475 0.09770961
-0.067620695 -0.10147316 -0.12762804 -0.06630877 -0.034803145 0.06318704 -0.13918847 0.18132599
-0.20572656 0.087923735 -0.099819526 0.06912922 0.07117714 -0.07047999 0.10792879 -0.027607335
0.027324976 -0.22714859 -0.05332236 0.024306117 0.038125914 -0.12799163 -0.123798996 0.07999841
0.022498457 0.036769528 -0.037113436 -0.11822753 -0.12097159 -0.15988284 0.18826298 -0.21367458
0.13241342 -0.012442276 0.051823344 -0.021045662 -0.011698068 -0.026243439 0.07811768 -0.16060248
-0.11927972 -0.14938569 -0.038943857 0.10633611 -0.098299704 -0.0036180285 -0.0962544 -0.24461663
-0.17881152 -0.16842127 0.13675733 0.1358657 0.06321641 0.17828742 -0.12368502 0.09801414
0.0034285455 0.08090723 0.06618367 -0.099288926 0.11059119 -0.033631567 -0.080554344 0.20381868
0.010687394 -0.022884991 -0.019131247 -0.15484308 0.21900328 -0.12552314 0.09718912 0.1379849
0.08113982 -0.13036056 0.09242491 -0.056139216 -0.13885044 0.18721442 -0.036382426 0.08159018
0.15611824 0.0035062518 0.14168468 0.12595183 0.15396614 -0.15636872 -0.026221707 -0.10065916
-0.023134906 0.1459479 -0.033163466 -0.14475815 -0.2297673 0.052773453 -0.0031777069 -0.033662695
-0.013413458 0.09681114 0.07592687 -0.10167539 -0.10447825 -0.07065203 0.07784648 0.114389665
0.029781321 -0.097312815 0.004736926 0.10848315 0.12554249 0.14382713 -0.020278275 0.14250152
0.083868876 0.22353663 0.08671261 0.15821299 0.03837534 -0.017525284 0.051323056 0.09224136
-0.034358203 -0.053770382 0.14201288 -0.19318113 0.19628054 -0.0072959107 0.18770058 0.07707186
0.042729296 -0.07641618 -0.13345638 -0.048060626 -0.00031264438 -0.024563195 0.033288617 0.13908252
0.17482542 -0.12306922 -0.10473385 0.09294213 0.009430965 -0.0087128375 -0.09553055 -0.10224087
0.045927525 0.36355188 -0.032774832 -0.1422255 0.111708865 -0.05990623 -0.1935918 0.18872608
-0.01270902 -0.1087479 0.09869073 0.07995552 -0.10170995 -0.06730407 0.13239707 -0.23539843
0.098183386 0.045507226 -0.09055101 0.14934136 0.009698175 0.24832712 0.07486348 -0.15420018
-0.0745553 0.06664477 -0.16936809 0.22390756 0.13805626 -0.16581912 -0.043651443 -0.15413153
0.20189384 0.16525124 -0.20072916 0.065897934 -0.08783972 0.048606534 -0.2146355 -0.060868163
-0.07813109 0.12318841 -0.04535412 -0.0064972173 -0.20115064 0.09199902 0.14753777 0.03919447
0.061673693 0.124142036 0.12429589 -0.07496944 0.11645349 0.107656956 0.17813207 0.15487722
-0.02703997 0.057767134 0.1256158 -0.0806502 -0.10328277 0.12117661 0.19826694 -0.129655
0.032451265 0.37447825 0.009081994 0.031222604 -0.12574553 0.16448154 -0.16001114 0.11354612
-0.008410572 0.067910396 0.012359369 0.108062156 -0.041178297 -0.22846374 0.09138508 -0.3427844
0.13259046 -0.14008807 -0.019839313 -0.014217068 -0.280304 0.205997 0.16723865 -0.11077715
0.15644607 -0.032335375 0.13687266 0.116415456 -0.07003833 0.014260108 0.20530064 -0.15891436
00000000: 896c fb3d e53c 4f3e 3d70 b13c 9bd8 e83d
00000010: 38db a2bd 1385 ec3d d671 73bb b379 97bc
00000020: a943 b83c 19d1 863c c844 e73d ab67 08be
00000030: e49c f13d 18a1 743d 2abb 0abc fa1b c83d
00000040: b87c 8abd 29d1 cfbd edb0 02be e4cc 87bd
00000050: be8d 0ebd 3568 813d 6c87 0ebe 85ad 393e
00000060: fca9 52be 5c11 b43d 2e6e ccbd 9f93 8d3d
00000070: 52c5 913d d057 90bd c509 dd3d c728 e2bc
00000080: a1d8 df3c a499 68be 8c68 5abd 9f1d c73c
00000090: eb29 1c3d 3d10 03be 548a fdbd 35d6 a33d
000000a0: af4e b83c a59b 163d 4204 18bd 4621 f2bd
000000b0: f4bf f7bd 54b8 23be 03c8 403e 82cd 5abe
000000c0: 6297 073e b0da 4bbc b744 543d f467 acbc
000000d0: 41a9 3fbc 7bfc d6bc 2afc 9f3d fa74 24be
000000e0: ed48 f4bd 90f8 18be 9883 1fbd bfc6 d93d
000000f0: 5b51 c9bd 721c 6dbb 0721 c5bd c87c 7abe
00000100: 5e1a 37be a076 2cbe 1d0a 0c3e 6120 0b3e
00000110: 9b77 813d fa90 363e 924e fdbd a3bb c83d
00000120: 73b1 603b b1b2 a53d 4e8b 873d fe57 cbbd
00000130: a27d e23d 41c1 09bd adf9 a4bd d8b5 503e
00000140: 2e1a 2f3c 4e79 bbbc 22b9 9cbc 2f8f 1ebe
00000150: 6542 603e 2389 00be 170b c73d ea4b 0d3e
00000160: a22c a63d 3d7d 05be 4549 bd3d 3cf2 65bd
00000170: cf2e 0ebe 23b5 3f3e bd05 15bd c118 a73d
00000180: 76dd 1f3e 25c9 653b ca15 113e 84f9 003e
00000190: 4da9 1d3e 1f1f 20be e8ce d6bc 6426 cebd
000001a0: 6a85 bdbc 5e73 153e 6ad6 07bd 7b3b 14be
000001b0: 1e48 6bbe fa28 583d 1341 50bb e5e1 09bd
000001c0: 1fc4 5bbc eb44 c63d 8c7f 9b3d 303b d0bd
000001d0: b1f8 d5bd 03b2 90bd fa6d 9f3d 2145 ea3d
000001e0: f5f7 f33c f14b c7bd 3738 9b3b 6a2c de3d
000001f0: 368e 003e 6b47 133e a01e a6bc ebeb 113e
00000200: 72c3 ab3d c9e6 643e 6296 b13d 9602 223e
00000210: 762f 1d3d 2f91 8fbc 2038 523d 0ae9 bc3d
00000220: 30bb 0cbd 553e 5cbd d36b 113e 46d1 45be
00000230: c4fd 483e 8912 efbb 9534 403e dad7 9d3d
00000240: ea04 2f3d 1680 9cbd caa8 08be 38db 44bd
00000250: 6bea a3b9 c138 c9bc a559 083d a66b 0e3e
00000260: 6f05 333e b70b fcbd b37e d6bd 7258 be3d
00000270: 5684 1a3c 4ac0 0ebc 85a5 c3bd a963 d1bd
00000280: 801e 3c3d 7923 ba3e e73e 06bd 90a3 11be
00000290: 9ec7 e43d 3c60 75bd ee3c 46be 6941 413e
000002a0: 7e39 50bc 38b7 debd 5e1e ca3d b8bf a33d
000002b0: 4e4d d0bd b7d6 89bd 1993 073e 490c 71be
000002c0: 5f14 c93d c965 3a3d cf72 b9bd f1ec 183e
000002d0: 18e5 1e3c 7749 7e3e 0652 993d a7e6 1dbe
000002e0: 73b0 98bd 0e7d 883d d46e 2dbe 0648 653e
000002f0: 9f5e 0d3e 7dcc 29be dbcb 32bd a8d4 1dbe
00000300: 42bd 4e3e 9f37 293e f28b 4dbe 7ff5 863d
00000310: 50e5 b3bd a517 473d 69c9 5bbe e550 79bd
00000320: 3103 a0bd 354a fc3d 3ec5 39bd 9ce6 d4bb
00000330: 6ffa 4dbe fb69 bc3d 2414 173e 618a 203d
00000340: 8e9d 7c3d 2e3e fe3d d88e fe3d 9489 99bd
00000350: 2b7f ee3d 407b dc3d 4168 363e 2298 1e3e
00000360: ed82 ddbc 3b9d 6c3d 6ea1 003e ef2b a5bd
00000370: eb85 d3bd 712b f83d 7d06 4b3e 48c4 04be
00000380: 9eeb 043d 9dbb bf3e a5cc 143c 8cc6 ff3c
00000390: 70c3 00be d96d 283e f6d9 23be de8a e83d
000003a0: 7fcc 09bc 9b14 8b3d f37e 4a3c b14f dd3d
000003b0: 93aa 28bd 66f2 69be 1a28 bb3d 7081 afbe
000003c0: cbc5 073e 3f73 0fbe 0e86 a2bc b5ee 68bc
000003d0: 0284 8fbe e1f0 523e 9c40 2b3e 21df e2bd
000003e0: 6633 203e 1972 04bd 5928 0c3e 3a6b ee3d
000003f0: 4270 8fbd 3aa3 693c 553a 523e 72ba 22be

lstm.weight_hh_l1 f4 [128, 32]
-0.11028953 0.09744168 -0.09258594 0.13485701 -0.120821565 0.13092963 0.13268934 0.21546158
0.11555208 -0.026159205 -0.020770459 -0.12548077 0.10226828 -0.026156632 0.053391416 -0.011310456
0.14426869 0.069273695 -0.06621267 0.1327248 0.18442003 0.08637961 0.12590745 0.06795109
-0.21672542 0.07932413 0.07883881 -0.12368289 0.107873484 -0.07347095 -0.13486873 -0.103650615
0.11011364 -0.18843155 -0.103712276 0.0041853054 -0.12804957 0.107074015 0.28156734 0.2090281
0.1387787 0.05495213 -0.113305025 0.15186116 -0.12836191 -0.17721733 -0.12308504 0.02422541
0.04353468 0.16332135 0.13327588 -0.12813687 0.16516116 -0.18482134 0.09432178 0.038751934
-0.025221111 -0.14467832 -0.0935103 -0.10089064 -0.04554896 0.050612964 -0.17722535 -0.09692048
-0.014645587 -0.004947387 -0.019900333 -0.04767172 -0.21889319 -0.1142267 0.06091221 -0.0168241
-0.015171757 -0.09034345 0.03689865 0.079104535 -0.15839213 -0.23163877 0.17794777 0.042289987
0.0989215 0.042847805 0.1001315 0.16166072 0.19074409 -0.13130178 -0.09617179 0.17208795
0.059475064 -0.14052068 -0.06229705 0.16195711 0.057527173 0.15485553 0.1276838 -0.15082243
0.09990785 -0.013023821 0.17694308 -0.027122641 0.11538248 -0.17696035 0.047184527 -0.027656443
0.007723513 -0.1685418 0.06262743 -0.11185082 -0.06960047 -0.16509743 0.072349876 -0.042762738
0.05391398 0.028799528 0.0866853 -0.0654621 -0.09405098 -0.0023181553 -0.0046475353 -0.059457075
0.13646549 -0.083323605 0.083915286 0.14250782 -0.12593107 0.004104079 -0.1312809 0.00083243294
-0.14900002 -0.0635019 0.04197242 -0.04852976 0.07378183 0.10924972 0.11402659 0.1169369
0.13560683 -0.038327344 0.045047067 -0.08563493 0.03494431 -0.16447961 -0.05477761 0.17712921
0.0006853876 0.024776457 -0.14761192 -0.19129598 0.053918082 -0.20902146 0.010993008 -0.1438647
-0.13169914 0.11826851 -0.051515084 0.17310052 0.051421586 -0.13947874 0.089627914 0.092988074
0.12791441 0.13065752 -0.10034413 0.037087783 0.16141073 0.21667296 0.040042806 0.1943163
0.036822595 -0.1077387 -0.27345574 0.06354431 0.043344583 -0.09714914 0.03379419 0.013216903
-0.05679469 0.18070078 0.02748309 -0.028025413 -0.20292604 -0.111805305 0.01034088 0.03980605
-0.13169318 0.10006678 -0.15612684 -0.0433772 -0.01069921 -0.005583524 0.1700221 0.14143787
0.16213822 0.024957169 -0.06097402 0.07386581 0.11642997 0.10673536 0.21885364 -0.031135714
-0.14156975 -0.047183905 0.17919113 0.019291624 0.08835176 0.106010295 0.048510183 -0.009965295
-0.017540554 0.07211516 0.045816325 -0.19391176 0.20478262 -0.026900038 0.11432631 0.08973104
-0.30719763 -0.1365022 0.08357646 -0.012760812 0.16714025 0.1831711 -0.14944103 0.15986317
0.070566945 0.080037184 0.17880014 -0.010309026 -0.01543234 -0.101986036 0.115642585 -0.017202761
-0.125399 -0.11981343 0.12733574 -0.11335152 0.022086862 -0.058262054 -0.072925694 -0.27302355
0.046232328 0.02638671 -0.004628533 0.037499394 -0.0523097 0.10533889 0.04184528 0.013848139
0.003832717 -0.06907006 0.10150181 -0.083752014 -0.061029054 -0.03993516 -0.027660199 -0.040980134
00000000: 7adf e1bd 818f c73d b39d bdbd f517 0a3e
00000010: 4c71 f7bd 6b12 063e b7df 073e f6a1 5c3e
00000020: 92a6 ec3d d44b d6bc cf26 aabc 087e 00be
00000030: 0872 d13d 6f46 d6bc f5b0 5a3d 7e4f 39bc
00000040: 2cbb 133e 5edf 8d3d 829a 87bd 03e9 073e
00000050: 9bd8 3c3e cbe7 b03d e2ed 003e f129 8b3d
00000060: 45ed 5dbe b174 a23d 3e76 a13d 744d fdbd
00000070: c6ec dc3d f077 96bd 071b 0abe c646 d4bd
00000080: 4383 e13d 33f4 40be 1a67 d4bd e324 893b
00000090: 6d1f 03be 9f49 db3d 9829 903e 760b 563e
000000a0: 011c 0e3e 7c15 613d 770c e8bd 7e81 1b3e
000000b0: 4e71 03be 7678 35be 0214 fcbd 5e74 c63c
000000c0: 6c51 323d b63d 273e 7979 083e 5036 03be
000000d0: 0220 293e ce41 3dbe c72b c13d 59ba 1e3d
000000e0: 819c cebc 8e26 14be 5482 bfbd c09f cebd
000000f0: 8c91 3abd 8a4f 4f3d 907a 35be 3f7e c6bd
00000100: 0bf4 6fbc b11d a2bb 0606 a3bc 6c43 43bd
00000110: 8925 60be b0ef e9bd 157f 793d b2d2 89bc
00000120: f692 78bc fd05 b9bd 0a23 173d 8f01 a23d
00000130: 8c31 22be b732 6dbe f137 363e 4438 2d3d
00000140: 5b97 ca3d 2e81 2f3d be11 cd3d 638a 253e
00000150: 6b52 433e f973 06be b7f5 c4bd d337 303e
00000160: 209c 733d a7e4 0fbe 312b 7fbd 16d8 253e
00000170: 9da1 6b3d 7392 1e3e 8bbf 023e 3271 1abe
00000180: 7d9c cc3d dd61 55bc 9130 353e 4d30 debc
00000190: a64d ec3d 1835 35be 9044 413d c48f e2bc
000001a0: 8615 fd3b 3996 2cbe cf42 803d 0b12 e5bd
000001b0: b18a 8ebd 4d0f 29be 2c2c 943d fb27 2fbd
000001c0: e8d4 5c3d fdec eb3c 1088 b13d fe10 86bd
000001d0: cd9d c0bd 31ec 17bb 5a4a 98bb 4389 73bd
000001e0: 9cbd 0b3e 91a5 aabd c7db ab3d 92ed 113e
000001f0: 13f4 00be 837b 863b 806e 06be a137 5a3a
00000200: 7693 18be 490d 82bd 46eb 2b3d 24c7 46bd
00000210: ee1a 973d 51be df3d c686 e93d 9d7c ef3d
00000220: 84dc 0a3e 22fd 1cbd 4683 383d 5e61 afbd
00000230: c421 0f3d 586d 28be 7d5e 60bd 5c61 353e
00000240: 95ab 333a fff7 ca3c 9427 17be 18e3 43be
00000250: 35d9 5c3d b909 56be 041c 343c 4551 13be
00000260: 24dc 06be c336 f23d 7b01 53bd 4341 313e
00000270: 719f 523d 84d3 0ebe d78e b73d 8870 be3d
00000280: fffb 023e 16cb 053e 3981 cdbd 5ce9 173d
00000290: db48 253e 84df 5d3e ed03 243d dafa 463e
000002a0: 4ad3 163d 1ca6 dcbd 6402 8cbe 8523 823d
000002b0: 178a 313d 21f6 c6bd c76b 0a3d b68b 583c
000002c0: 8da1 68bd a009 393e 3824 e13c 8d95 e5bc
000002d0: d8cb 4fbe 2efa e4bd cb6c 293c ab0b 233d
000002e0: 94da 06be d0ef cc3d b7df 1fbe 4aac 31bd
000002f0: bd4b 2fbc fef5 b6bb 461a 2e3e 17d5 103e
00000300: 9007 263e fa72 cc3c e5bf 79bd f546 973d
00000310: d672 ee3d 1298 da3d 2b1b 603e 5310 ffbc
00000320: a9f7 10be e943 41bd e17d 373e 7809 9e3c
00000330: c4f1 b43d ed1b d93d 9db2 463d 7a45 23bc
00000340: 35b1 8fbc 1db1 933d e6a9 3b3d ce90 46be
00000350: 89b2 513e 785d dcbc ea23 ea3d e8c4 b73d
00000360: 0249 9dbe 3cc7 0bbe 232a ab3d ba12 51bc
00000370: d026 2b3e 3491 3b3e 1207 19be 2cb3 233e
00000380: 6785 903d 89ea a33d 6217 373e 30e7 28bc
00000390: edd7 7cbc 0ede d0bd 05d6 ec3d ceec 8cbc
000003a0: 9868 00be be60 f5bd 4d64 023e d724 e8bd
000003b0: 82ef b43c 31a4 6ebd 115a 95bd bec9 8bbe
000003c0: 1c5e 3d3d f128 d83c f3aa 97bb f798 193d
000003d0: b242 56bd eabb d73d f565 2b3d 4ee3 623c
000003e0: 522e 7b3b 9b74 8dbd 2ee0 cf3d 2d86 abbd
000003f0: 9af9 79bd 0d93 23bd a497 e2bc c9da 27bd

lstm.bias_ih_l1 f4 [128]
0.0012819568 0.09920415 -0.14050674 -0.14926125 -0.009054107 0.13952853 -0.02080906 0.18106529
-0.12803838 0.14425479 -0.015915861 0.017534487 0.007779961 0.113545634 -0.17852297 -0.07846839
-0.10164882 0.15541305 0.14993009 0.026941724 0.1401736 0.0631882 0.25828874 -0.15542522
0.19946788 0.12185762 0.040284168 0.20556395 0.05926116 0.13569972 0.17638928 -0.026527923
-0.06594039 0.06756262 -0.10697646 0.16241561 -0.0017746353 0.15341061 0.17574102 0.099345624
0.26150098 0.17380959 -0.09045676 0.100883745 0.06411261 -0.024348166 0.2832355 -0.0883364
0.26801103 0.027755238 0.09298413 0.20317788 -0.004841694 -0.024835277 0.28842598 0.18478748
0.040875953 0.21047448 0.20546728 0.20237127 -0.070195824 0.10779626 -0.1191892 -0.0737386
-0.10885371 0.0062136725 0.058043607 -0.16378678 0.09067892 0.16598356 0.17157161 0.09330293
-0.040176045 -0.19365299 -0.1704774 -0.044110317 0.036313295 -0.05435101 -0.054185852 0.12737063
0.08773751 0.17733957 -0.023682702 -0.094633855 0.1340716 0.051790692 0.26223898 -0.1505133
0.061220303 0.124197945 -0.04325181 0.19149327 0.12420459 -0.07113097 0.15712492 0.14392155
0.11301971 -0.13859414 -0.020472487 0.07394464 0.098650806 0.1840722 0.21551041 0.090701774
0.1351171 0.32786897 0.21388038 0.038285278 0.056297176 -0.08086259 0.17299916 -0.090449266
0.10900872 0.02300731 -0.102329634 -0.0267027 0.03904392 -0.06786453 0.0262331 -0.073472396
-0.052637678 0.22508422 0.20642178 0.10832683 -0.0009880783 -0.08815723 -0.07311882 0.15590711
00000000: 5507 a83a 8c2b cb3d 00e1 0fbe f1d7 18be
00000010: ad57 14bc 91e0 0e3e c377 aabc 2e69 393e
00000020: 7e1c 03be 87b7 133e fb61 82bc 7ca4 8f3c
00000030: 0bef fe3b 9d8a e83d bace 36be 09b4 a0bd
00000040: 422d d0bd 9924 1f3e 4687 193e e4b4 dc3c
00000050: ab89 0f3e d168 813d 6c3e 843e ca27 1fbe
00000060: 4f41 4c3e 7d90 f93d 0301 253d 5b7f 523e
00000070: d5bb 723d def4 0a3e 649f 343e 1651 d9bc
00000080: c10b 87bd 455e 8a3d 7916 dbbd 4750 263e
00000090: e19a e8ba ac17 1d3e 74f5 333e b875 cb3d
000000a0: 75e3 853e 24fb 313e 6541 b9bd 239c ce3d
000000b0: 794d 833d ce75 c7bc 3e04 913e b7e9 b4bd
000000c0: be38 893e f45e e33c 776e be3d dd0d 503e
000000d0: 13a7 9ebb 5a73 cbbc 92ac 933e ee38 3d3e
000000e0: 8b6d 273d 9f86 573e 0466 523e 6a3a 4f3e
000000f0: d4c2 8fbd 49c4 dc3d 7819 f4bd 4304 97bd
00000100: b2ee debd 109c cb3b 22bf 6d3d b9b7 27be
00000110: dfb5 b93d 98f7 293e 78b0 2f3e 9b15 bf3d
00000120: a38f 24bd f84c 46be a191 2ebe 05ad 34bd
00000130: 40bd 143d 2a9f 5ebd fcf1 5dbd 726d 023e
00000140: b9af b33d 8198 353e 3a02 c2bc 65cf c1bd
00000150: 114a 093e 7a22 543d 3044 863e 2920 1abe
00000160: 24c2 7a3d 7e5b fe3d cf28 31bd d016 443e
00000170: fa5e fe3d 1dad 91bd 5be5 203e 2c60 133e
00000180: e176 e73d 9feb 0dbe ebb5 a7bc 4a70 973d
00000190: 6f09 ca3d 6c7d 3c3e c3ae 5c3e dac1 b93d
000001a0: 235c 0a3e 71de a73e 7503 5b3e 06d1 1c3d
000001b0: de97 663d 499b a5bd b126 313e 773d b9bd
000001c0: f73f df3d d479 bc3c 3392 d1bd 9fbf dabc
000001d0: 84ec 1f3d 8ffc 8abd cce6 d63c b278 96bd
000001e0: 9b9a 57bd 7a7c 663e 3b60 533e 75da dd3d
000001f0: 6882 81ba c78b b4bd 52bf 95bd 1da6 1f3e
